app/src/main/assets/model.tflite (tflite, 100336 bytes, 22 tensors)

batch_normalization_v1/batchnorm/mul f4 [256]
0	0x3b7fa7f1	0.0039010013
1	0x3b0b9003	0.0021295554
2	0x3b94f16c	0.0045453813
3	0x3b82914a	0.003984605
4	0x3b63be8e	0.003475103
5	0x3bad93fa	0.005297181
6	0x3b16e325	0.0023023572
7	0x3bc62152	0.0060464526
8	0x3b41657b	0.002950995
9	0x3b1d9df0	0.0024050437
10	0x3b1a10a5	0.0023508456
11	0x3bb2a634	0.005451942
12	0x3bbe95d4	0.0058162007
13	0x3b2c433f	0.00262852
14	0x3b4de331	0.0031415934
15	0x3bb9ee6b	0.0056741736
16	0x3b5ffeba	0.0034178928
17	0x3b0b7969	0.0021282083
18	0x3bcce898	0.0062533133
19	0x3c11aa25	0.008890663
20	0x3b891f67	0.0041846517
21	0x3bc0b33b	0.005880741
22	0x3b1346c1	0.0022472593
23	0x3b2a438a	0.0025980198
24	0x3b4f4a0c	0.0031629829
25	0x3b2544b6	0.0025217957
26	0x3b59e7f1	0.003324982
27	0x3b19cdbf	0.0023468581
28	0x3b8acc54	0.0042357836
29	0x3b8d894e	0.0043193465
30	0x3bb11d95	0.005405138
31	0x3b6921d8	0.003557315
32	0x3b4feee2	0.0031728079
33	0x3bacba49	0.0052712304
34	0x3b4080d9	0.0029373674
35	0x3b9ac4c2	0.0047231624
36	0x3bfe5629	0.007761736
37	0x3b28fabe	0.002578422
38	0x3b5347ac	0.0032238765
39	0x3c01c4dc	0.00792047
40	0x3b97ab60	0.004628584
41	0x3b39e647	0.0028366016
42	0x3b049122	0.0020228107
43	0x3b954329	0.0045551253
44	0x3b35dc9c	0.0027749902
45	0x3b191aba	0.0023361878
46	0x3b22b5a6	0.002482751
47	0x3b811681	0.0039394503
48	0x3b1cfbf0	0.0023953877
49	0x3b55b565	0.003260934
50	0x3b638177	0.0034714618
51	0x3b6d78a6	0.0036235242
52	0x3b337c8b	0.0027387466
53	0x3b48116e	0.0030527967
54	0x3b7a53db	0.0038196954
55	0x3bf57348	0.0074905492
56	0x3bb0c677	0.0053947526
57	0x3b0bcba2	0.0021331091
58	0x3b3938d4	0.0028262632
59	0x3b26a7d2	0.0025429619
60	0x3b5ca887	0.0033669786
61	0x3b6016de	0.0034193317
62	0x3b1ce5bf	0.002394065
63	0x3b626238	0.0034543406
64	0x3aee7af7	0.0018194605
65	0x3b5fd171	0.0034151936
66	0x3af64ff4	0.0018792138
67	0x3b30b9e2	0.0026966264
68	0x3b00e009	0.0019664785
69	0x3b1734c3	0.002307222
70	0x3bae000e	0.005310065
71	0x3b99a0f1	0.004688375
72	0x3b7284da	0.0037005455
73	0x3bd13240	0.006384164
74	0x3b3daf51	0.0028943608
75	0x3b12a897	0.002237832
76	0x3b16a741	0.0022987875
77	0x3b1bf000	0.0023794174
78	0x3bb03516	0.005377422
79	0x3bd0e6ed	0.0063751847
80	0x3b0eac03	0.0021770007
81	0x3b5e2ec0	0.0033902377
82	0x3b31b338	0.002711488
83	0x3bdc2f91	0.0067195375
84	0x3b836629	0.004009981
85	0x3b4056c4	0.0029348591
86	0x3b2426e2	0.002504759
87	0x3bc336ea	0.005957474
88	0x3b1d1781	0.0023970308
89	0x3b2b508a	0.0026140534
90	0x3bbc49b6	0.0057460917
91	0x3b1cce35	0.002392662
92	0x3b61b12f	0.0034437885
93	0x3b0dbcb6	0.0021627373
94	0x3bb8db0d	0.0056413473
95	0x3b2237e2	0.0024752547
96	0x3b8841c6	0.0041582314
97	0x3aec99e9	0.001805124
98	0x3b06a699	0.0020546077
99	0x3b1019ea	0.0021988102
100	0x3b2c6985	0.0026308012
101	0x3b085578	0.0020802896
102	0x3b9b53e6	0.004740226
103	0x3b8f789f	0.004378393
104	0x3b8f92e0	0.0043815225
105	0x3b514feb	0.0031938504
106	0x3aeea586	0.0018207289
107	0x3b8c6fbd	0.004285781
108	0x3b17c4e0	0.0023158118
109	0x3b915dae	0.0044362163
110	0x3afb9f60	0.0019197278
111	0x3b234a43	0.002491609
112	0x3bba0144	0.0056764204
113	0x3b13bb51	0.002254207
114	0x3b95fb4d	0.0045770765
115	0x3bed768b	0.0072467974
116	0x3b9c550d	0.004770881
117	0x3ad6dffb	0.0016393656
118	0x3b8c6a66	0.0042851446
119	0x3ba3706b	0.0049877665
120	0x3b24079f	0.0025028957
121	0x3b17a940	0.0023141652
122	0x3b6518da	0.003495744
123	0x3b1493c5	0.0022671085
124	0x3b58d254	0.003308435
125	0x3b8af3d6	0.0042404933
126	0x3bc53428	0.0060181804
127	0x3ba12dc1	0.0049187844
128	0x3b97d9f9	0.0046341387
129	0x3b9d0e1d	0.004792942
130	0x3b09fd9f	0.002105571
131	0x3b1c7c87	0.0023877935
132	0x3b36768c	0.0027841656
133	0x3b67a57c	0.003534644
134	0x3bc03439	0.0058656004
135	0x3baf159e	0.005343153
136	0x3b7f953c	0.0038998863
137	0x3b97ff23	0.004638569
138	0x3b48efe2	0.003066056
139	0x3b382838	0.0028100144
140	0x3b3fb26d	0.0029250637
141	0x3b96d2a0	0.004602745
142	0x3b5f21cc	0.0034047244
143	0x3b003ad2	0.001956631
144	0x3afcbf92	0.0019283167
145	0x3b2b4161	0.0026131498
146	0x3b9aecb7	0.0047279256
147	0x3bc571be	0.006025522
148	0x3af9103e	0.0019002033
149	0x3b3392a5	0.002740064
150	0x3bb7ba2e	0.005606911
151	0x3ae52ec7	0.0017485254
152	0x3b470f9a	0.003037429
153	0x3b10cf03	0.0022096045
154	0x3b6c3604	0.0036042938
155	0x3b2df983	0.0026546426
156	0x3b8e8a0b	0.004349952
157	0x3b71b59d	0.0036881932
158	0x3b14d33b	0.002270891
159	0x3b29c18e	0.002590272
160	0x3bc5aea2	0.0060327807
161	0x3b0b0896	0.0021214834
162	0x3b16348c	0.0022919504
163	0x3b13206c	0.0022449745
164	0x3aed54b3	0.0018106907
165	0x3b29d257	0.0025912726
166	0x3b557f81	0.003257722
167	0x3bc6c86e	0.0060663735
168	0x3baeaa77	0.0053303796
169	0x3b9c8483	0.004776539
170	0x3b5c665c	0.0033630347
171	0x3b485aef	0.0030571779
172	0x3b44aa0b	0.003000858
173	0x3b853cbe	0.004066079
174	0x3b9247b0	0.004464112
175	0x3b2e8b1e	0.0026633213
176	0x3b24d5a6	0.0025151758
177	0x3b6014b5	0.003419203
178	0x3b7d6750	0.0038666315
179	0x3b570262	0.0032807817
180	0x3b8d5e13	0.004314193
181	0x3b4ed569	0.0031560308
182	0x3b6b18df	0.0035872979
183	0x3b76b269	0.0037642962
184	0x3b84bfab	0.004051169
185	0x3c024c89	0.007952818
186	0x3b487da2	0.003059246
187	0x3bbce33c	0.005764393
188	0x3b171917	0.0023055726
189	0x3b2c1d5e	0.0026262621
190	0x3bda38e1	0.0066596125
191	0x3b654985	0.0034986448
192	0x3b02e798	0.0019974466
193	0x3b817469	0.0039506448
194	0x3b818c91	0.0039535244
195	0x3be896ea	0.0070980685
196	0x3b28266f	0.0025657674
197	0x3b653635	0.0034974937
198	0x3b8e643f	0.0043454464
199	0x3b481fa3	0.0030536435
200	0x3b1b567b	0.002370267
201	0x3b4f0c4f	0.003159303
202	0x3b12cf07	0.002240123
203	0x3b0ace4b	0.002118009
204	0x3b376e05	0.002798916
205	0x3b761cd4	0.0037553804
206	0x3b2e283c	0.0026574275
207	0x3b046a75	0.0020205055
208	0x3b28c4b0	0.0025752
209	0x3bd45191	0.00647945
210	0x3aeedf58	0.0018224521
211	0x3b71d86b	0.0036902677
212	0x3b902da2	0.004399971
213	0x3bc17d8f	0.0059048603
214	0x3b288628	0.002571473
215	0x3b78227c	0.0037862351
216	0x3adcc553	0.0016843475
217	0x3afe4f9a	0.0019402385
218	0x3b9b1db6	0.0047337664
219	0x3b7bc001	0.0038414004
220	0x3b22828d	0.0024797053
221	0x3af5de71	0.0018758309
222	0x3aec5576	0.001803084
223	0x3b0b8dea	0.0021294304
224	0x3b4cfafb	0.0031277526
225	0x3c002f5c	0.007823791
226	0x3af27c80	0.0018500239
227	0x3b02bcf9	0.0019949062
228	0x3ba005e4	0.0048835147
229	0x3b84a6f5	0.004048223
230	0x3ba89790	0.005145021
231	0x3b9060c4	0.0044060666
232	0x3b407147	0.0029364394
233	0x3b4bdf13	0.0031108304
234	0x3b560f1f	0.0032662821
235	0x3bbf8c9d	0.00584562
236	0x3bdb42ad	0.006691298
237	0x3ba23ba6	0.0049509583
238	0x3b8909e6	0.004182088
239	0x3baed3a9	0.0053352905
240	0x3b60f488	0.003432544
241	0x3bc39e35	0.0059697875
242	0x3b545ebd	0.0032405101
243	0x3b27fee7	0.0025634111
244	0x3b37a4ef	0.0028021892
245	0x3b425fec	0.0029659225
246	0x3b40acaf	0.0029399802
247	0x3b8a4586	0.0042197136
248	0x3b0ad923	0.0021186552
249	0x3b02aa26	0.0019937842
250	0x3ba9cf65	0.005182194
251	0x3b816ac2	0.003949494
252	0x3b0de7ff	0.0021653173
253	0x3b4a388b	0.0030856456
254	0x3ba9bbbf	0.005179852
255	0x3b49cf14	0.0030793594

batch_normalization_v1/batchnorm/sub f4 [256]
0	0xbe95a5eb	-0.29228148
1	0xbf348ea6	-0.70530164
2	0xbe9e6495	-0.30936113
3	0xbe59c5e9	-0.21266903
4	0xbef10533	-0.4707428
5	0xbd29d408	-0.041461974
6	0xbf57cdb4	-0.84298253
7	0x3e31a136	0.17346653
8	0xbed3e085	-0.41382232
9	0xbec3aa54	-0.38215888
10	0xbf3a7d2c	-0.7284725
11	0xbd5b0ab0	-0.05347699
12	0x3ecaf7d0	0.3964219
13	0xbf07579b	-0.5286805
14	0xbf049c51	-0.5180102
15	0x3cb6b3de	0.022302564
16	0xbee9d012	-0.45666558
17	0xbf42af4c	-0.7604873
18	0x3da3f222	0.080051675
19	0x3f5ee925	0.870745
20	0xbe0b5ace	-0.13608858
21	0xbde99c79	-0.11406798
22	0xbf4ea09d	-0.80713826
23	0xbef0ccb3	-0.47031173
24	0xbf0cae77	-0.5495371
25	0xbf08a342	-0.5337411
26	0xbee65ba2	-0.44991785
27	0xbf561fd5	-0.8364232
28	0xbdcc29fd	-0.09968946
29	0xbe23f3b4	-0.16010934
30	0x3cfde105	0.030991087
31	0xbe911ecf	-0.28343818
32	0xbe9bd96b	-0.30439314
33	0xbd078fea	-0.03309623
34	0xbef266f3	-0.4734417
35	0xbe079136	-0.13238987
36	0x3f1524bd	0.58259183
37	0xbf1ac215	-0.60452396
38	0xbe998f2e	-0.2999205
39	0x3efd4758	0.49468493
40	0xbdd7f32c	-0.10544428
41	0xbf0c6e8f	-0.548562
42	0xbf5691ab	-0.8381602
43	0x3d21d2cc	0.039507672
44	0xbf06388e	-0.52430046
45	0xbf1cfea4	-0.6132605
46	0xbf2de75f	-0.6793117
47	0xbe69a677	-0.22817408
48	0xbf4f4291	-0.8096095
49	0xbe6be3a7	-0.23036061
50	0xbf093a20	-0.53604317
51	0xbe9d6194	-0.3073851
52	0xbef47695	-0.4774672
53	0xbed068e7	-0.40705034
54	0xbda12fc5	-0.078704394
55	0x3f2b1ed0	0.6684389
56	0x3e5f019a	0.21777955
57	0xbf34d1fd	-0.70632917
58	0xbf31bf7a	-0.69432795
59	0xbf1178bd	-0.56824857
60	0xbe66ed82	-0.2255154
61	0xbf039d5b	-0.5141198
62	0xbf3b8ccc	-0.73261714
63	0xbead2c89	-0.3382304
64	0xbf53b0f3	-0.8269188
65	0xbebd4eed	-0.36974278
66	0xbf4f8d92	-0.81075394
67	0xbeddc376	-0.43313187
68	0xbf405212	-0.7512523
69	0xbf292fd3	-0.660886
70	0x3d6b62a6	0.057467125
71	0xbeb478a0	-0.3524828
72	0xbebe8524	-0.37210953
73	0x3f0dd08f	0.5539636
74	0xbf186169	-0.59523636
75	0xbf370c4e	-0.7150315
76	0xbf33bfb9	-0.7021442
77	0xbf3d4fe5	-0.73950034
78	0xbc9c9c16	-0.019117396
79	0xbd835e72	-0.064144984
80	0xbf2dff3e	-0.67967594
81	0xbeb7a750	-0.35869837
82	0xbf0dddee	-0.5541676
83	0x3ed32176	0.41236466
84	0xbeac66ad	-0.33672085
85	0xbf07c061	-0.5302792
86	0xbf3ad2f7	-0.72978157
87	0x3dcd5998	0.10026854
88	0xbf1e2e1f	-0.61789125
89	0xbf1aeb9c	-0.6051576
90	0x3dddd8da	0.10832377
91	0xbf479381	-0.7795945
92	0xbf0871cc	-0.5329864
93	0xbf5b5837	-0.8568148
94	0x3c890d31	0.016729923
95	0xbf1dda1a	-0.6166092
96	0xbe999c53	-0.30002078
97	0xbf2e4393	-0.6807186
98	0xbf7cfc6b	-0.9882266
99	0xbf3d0861	-0.7384091
100	0xbed75461	-0.42056563
101	0xbf4500c0	-0.7695427
102	0xbe0deb90	-0.13859391
103	0xbdb3a73d	-0.087721325
104	0xbd0e6925	-0.034768242
105	0xbeaad125	-0.3336269
106	0xbf70b2f6	-0.9402307
107	0xbe3be5cd	-0.18349381
108	0xbf12ff7f	-0.57421106
109	0xbd3d5e11	-0.046232287
110	0xbf2d484e	-0.67688453
111	0xbf26d3f3	-0.6516716
112	0xbb6a60e0	-0.0035763308
113	0xbf340440	-0.70318985
114	0xbdee9f96	-0.11651532
115	0x3f31350d	0.69221574
116	0xbc084bdc	-0.008318868
117	0xbf7144de	-0.9424571
118	0xbda2d771	-0.079512484
119	0x3e07e390	0.13270402
120	0xbf29fce8	-0.6640153
121	0xbf33cad7	-0.70231384
122	0xbea22a46	-0.31672877
123	0xbf5e9bd0	-0.869565
124	0xbe2a06e1	-0.16604187
125	0xbd390a6c	-0.045175955
126	0x3ecf195c	0.40449035
127	0xbea049c7	-0.31306288
128	0xbe72eed3	-0.23723917
129	0xbdc6f0ff	-0.09713935
130	0xbf17f9d5	-0.5936559
131	0xbf0f9884	-0.56092095
132	0xbf1f2e48	-0.62179995
133	0xbe810ae7	-0.2520363
134	0x3e004a80	0.1252842
135	0x3dd7b3b4	0.105323225
136	0xbea40eae	-0.3204245
137	0xbe299684	-0.16561323
138	0xbeed1e28	-0.4631207
139	0xbf3d1f77	-0.73876137
140	0xbee0ed25	-0.43930927
141	0xbe39fc0e	-0.18162557
142	0xbef11222	-0.47084147
143	0xbf422c9b	-0.7584931
144	0xbf637edd	-0.88865453
145	0xbf152c81	-0.5827103
146	0xbd71915e	-0.058976524
147	0x3ecd9aff	0.40157315
148	0xbf7a4d68	-0.9777436
149	0xbf0b2fcd	-0.54369813
150	0x3e1ca63b	0.15297787
151	0xbf2f4143	-0.68458956
152	0xbeb840c7	-0.3598692
153	0xbf05569d	-0.52085286
154	0xbe459d7e	-0.1929836
155	0xbf0eef93	-0.5583431
156	0xbdcedca0	-0.10100675
157	0xbebe71b2	-0.37196118
158	0xbf2c7ddc	-0.67379546
159	0xbf19a51c	-0.6001756
160	0x3eae671a	0.34063035
161	0xbf550359	-0.83208233
162	0xbf211850	-0.6292772
163	0xbf2d8ef8	-0.6779628
164	0xbf31d0cb	-0.6945922
165	0xbf299ff2	-0.6625968
166	0xbe92e577	-0.28690693
167	0x3e17f318	0.14838827
168	0xbca6c09c	-0.020355515
169	0xbdb4dddc	-0.08831379
170	0xbeaed300	-0.34145355
171	0xbead066c	-0.33793962
172	0xbec2559d	-0.37955943
173	0xbe8b2813	-0.27179012
174	0xbe487069	-0.19574131
175	0xbf1185e2	-0.56844914
176	0xbf3d45bb	-0.73934525
177	0xbe83fbfa	-0.2577818
178	0xbe40b12f	-0.1881759
179	0xbe87d499	-0.26529387
180	0xbdf1d32e	-0.118078575
181	0xbedc96e7	-0.4308388
182	0xbef300ac	-0.4746145
183	0xbe405f46	-0.18786344
184	0xbe0bce3e	-0.13652894
185	0x3f0ce4ec	0.5503681
186	0xbeab94a0	-0.3351183
187	0x3e709008	0.23492444
188	0xbf0ef1d8	-0.55837774
189	0xbf24b2ff	-0.64335626
190	0x3ee12879	0.4397619
191	0xbecbae26	-0.39781302
192	0xbf5e8e56	-0.8693594
193	0xbe561e40	-0.20909977
194	0xbe8557bb	-0.26043496
195	0x3f169185	0.58815795
196	0xbf0e5229	-0.55594116
197	0xbecf9d77	-0.40549824
198	0xbeb513bc	-0.3536662
199	0xbeebc91c	-0.46051872
200	0xbed51ede	-0.41625112
201	0xbec56e00	-0.38560486
202	0xbf392b57	-0.72331756
203	0xbf3591b7	-0.7092547
204	0xbecffd95	-0.40623155
205	0xbe3fa00f	-0.18713401
206	0xbf0cd728	-0.550158
207	0xbf48d5c7	-0.784512
208	0xbf27380d	-0.653199
209	0x3ec6d34e	0.38833088
210	0xbf59ae3d	-0.8503149
211	0xbeb9c68a	-0.36284286
212	0xbe622203	-0.22083287
213	0xbcc8e59e	-0.024523553
214	0xbf135df6	-0.5756525
215	0xbde920b2	-0.11383189
216	0xbf5f6e8f	-0.87278074
217	0xbf5675cc	-0.83773494
218	0x3d95bcd4	0.07311407
219	0xbe959151	-0.2921243
220	0xbf149e9c	-0.5805452
221	0xbf3ac178	-0.7295146
222	0xbf543601	-0.82894903
223	0xbf382b03	-0.7194063
224	0xbf0ca910	-0.5494547
225	0x3ed9e1ea	0.4255517
226	0xbf0fc946	-0.56166494
227	0xbf442154	-0.76613355
228	0xbcf1cb64	-0.02951593
229	0xbe8121a8	-0.2522099
230	0x3e8a17b9	0.26971224
231	0xbd58fb4d	-0.052974034
232	0xbed05503	-0.4068986
233	0xbf0a6d7b	-0.54073304
234	0xbefedb82	-0.49776846
235	0x3cb8c735	0.022555927
236	0x3f350763	0.70714396
237	0xbdaa6e66	-0.08321838
238	0xbdbf7b40	-0.0934968
239	0x3e39b9d9	0.18137302
240	0xbe4d2b95	-0.20036156
241	0x3eda5565	0.42643276
242	0xbeaad1c9	-0.33363178
243	0xbf4a68a8	-0.7906594
244	0xbf2586c6	-0.6465877
245	0xbf0a0248	-0.5390973
246	0xbef5c2ca	-0.48000175
247	0xbe3d98fd	-0.18515392
248	0xbf331829	-0.6995874
249	0xbf539c69	-0.8266054
250	0xbe418bd4	-0.18900996
251	0xbe4102e1	-0.18848754
252	0xbf45be6e	-0.772437
253	0xbe945431	-0.28970483
254	0x3d18adfd	0.037275303
255	0xbebb3943	-0.36567125

batch_normalization_v1_1/batchnorm/mul f4 [128]
0	0x3ef2fd96	0.47459096
1	0x3f2ce858	0.6754203
2	0x3edefd7f	0.43552777
3	0x3f296b75	0.6617959
4	0x3ed4eb05	0.41585556
5	0x3ee80184	0.45313656
6	0x3f22fefa	0.63670313
7	0x3f2c2e24	0.67257905
8	0x3f142fdb	0.5788552
9	0x3f1d738b	0.6150443
10	0x3f299027	0.66235584
11	0x3ef28d7d	0.47373572
12	0x3f25b621	0.6473103
13	0x3ee1c21e	0.44093412
14	0x3f23c143	0.6396677
15	0x3f108609	0.5645452
16	0x3f0100b4	0.503917
17	0x3f2961bd	0.6616476
18	0x3eb85876	0.3600499
19	0x3f21e091	0.63233286
20	0x3f1f33e2	0.6218854
21	0x3f3c67f2	0.7359611
22	0x3f11136b	0.56670254
23	0x3f1d4608	0.61434984
24	0x3f21390e	0.62977684
25	0x3f350211	0.7070628
26	0x3eef325c	0.4671811
27	0x3f124dec	0.5715015
28	0x3f285d08	0.65766954
29	0x3edd9c16	0.43283147
30	0x3ed71634	0.42009127
31	0x3f17e252	0.5932971
32	0x3f1980df	0.59962267
33	0x3f082b3e	0.5319098
34	0x3ef4a8de	0.47785085
35	0x3f286154	0.6577351
36	0x3ecd5de9	0.4011071
37	0x3f287753	0.65807074
38	0x3f15ef16	0.5856794
39	0x3ed42410	0.41433764
40	0x3f1f7798	0.6229186
41	0x3f0956d0	0.5364809
42	0x3ef6ded3	0.48216876
43	0x3f24e748	0.6441541
44	0x3f0d829f	0.55277437
45	0x3f1a1e7a	0.60202754
46	0x3f07ca88	0.53043413
47	0x3f170e28	0.59005976
48	0x3ebf1fea	0.37329036
49	0x3f0d9a77	0.5531382
50	0x3f04a263	0.5181028
51	0x3f2baf43	0.67064303
52	0x3eeeeaf5	0.46663633
53	0x3ef38836	0.47564858
54	0x3f1866ba	0.5953175
55	0x3f2ff5c6	0.68734396
56	0x3ec1a370	0.37820005
57	0x3eff1abb	0.4982508
58	0x3f2a0cf8	0.6642604
59	0x3f2f318a	0.68434966
60	0x3ec08f75	0.3760945
61	0x3f27d005	0.6555179
62	0x3ed9b41f	0.42520234
63	0x3f0d47d1	0.5518771
64	0x3f20e76f	0.6285314
65	0x3f23b661	0.63950163
66	0x3ee18945	0.4405004
67	0x3f1975c3	0.59945315
68	0x3f07e050	0.5307665
69	0x3f2e308a	0.68042815
70	0x3f28d3b3	0.6594803
71	0x3f0c8c5e	0.54901683
72	0x3f1598c8	0.5843625
73	0x3f2fa46a	0.6861025
74	0x3edb00fe	0.42774194
75	0x3f389792	0.7210628
76	0x3f094696	0.5362333
77	0x3ee97ae8	0.45601583
78	0x3eb6c253	0.35695133
79	0x3f010390	0.5039606
80	0x3f2d0bb6	0.67595994
81	0x3eddcc18	0.43319774
82	0x3f31661f	0.6929645
83	0x3f232caf	0.63740057
84	0x3eeea8f1	0.46613267
85	0x3f139cfe	0.57661426
86	0x3f04ca21	0.51870924
87	0x3f3cbcc6	0.73725545
88	0x3f12a930	0.5728941
89	0x3eedfee5	0.46483532
90	0x3ed92f78	0.42419028
91	0x3eecb0a5	0.4622852
92	0x3f348615	0.7051709
93	0x3edbe879	0.429508
94	0x3f163847	0.5867962
95	0x3f340f3b	0.7033574
96	0x3f147abf	0.57999796
97	0x3ef6b932	0.48188168
98	0x3edefe76	0.43553513
99	0x3ef9b8a6	0.48773688
100	0x3f242463	0.6411802
101	0x3f046200	0.51712036
102	0x3f06741e	0.5252093
103	0x3f337a3b	0.70108384
104	0x3eee5ae6	0.46553725
105	0x3f02db07	0.5111546
106	0x3ef50db2	0.4786201
107	0x3ed384c1	0.4131222
108	0x3f0c1f1b	0.54734963
109	0x3f0df59a	0.55452883
110	0x3f3018e2	0.6878797
111	0x3f38870c	0.72081065
112	0x3ef8d248	0.48597932
113	0x3f2c4531	0.6729308
114	0x3eedfeeb	0.4648355
115	0x3ebef4e2	0.37296206
116	0x3f22fbf4	0.636657
117	0x3f269144	0.6506541
118	0x3eed856e	0.4639086
119	0x3f2d6c10	0.67743015
120	0x3f2508a0	0.64466286
121	0x3ef99ba6	0.48751563
122	0x3ed91625	0.42399707
123	0x3f27dbd6	0.6556982
124	0x3f106437	0.56402916
125	0x3f3499e1	0.705473
126	0x3ecd5e04	0.4011079
127	0x3f052728	0.5201287

batch_normalization_v1_1/batchnorm/sub f4 [128]
0	0xbeb94e62	-0.36192614
1	0xbeea50ad	-0.45764676
2	0xbeb6f9ff	-0.35737607
3	0xbed5d285	-0.41762176
4	0xbeba1882	-0.36346823
5	0xbeb89f0c	-0.36058843
6	0xbf16f0e1	-0.589613
7	0xbf086a3e	-0.5328711
8	0xbeba5ab7	-0.36397335
9	0xbea69caa	-0.325414
10	0xbf0c9ad7	-0.54923767
11	0xbebbf4c7	-0.36710188
12	0xbeda974e	-0.4269356
13	0xbea7cadb	-0.32771954
14	0xbf19558a	-0.5989615
15	0xbeabd13a	-0.33558065
16	0xbebcd4d2	-0.3688112
17	0xbf058973	-0.52162856
18	0xbebe1479	-0.37124994
19	0xbf17016c	-0.58986545
20	0xbf0ec54f	-0.5576982
21	0xbefcd090	-0.4937787
22	0xbf2b33e9	-0.66876084
23	0xbf178509	-0.5918737
24	0xbf0fb04c	-0.5612838
25	0xbedfa279	-0.43678644
26	0xbeaedc6d	-0.34152547
27	0xbec162ae	-0.377706
28	0xbeeeaa2c	-0.46614206
29	0xbec35480	-0.38150406
30	0xbeb757e6	-0.3580925
31	0xbf1a6697	-0.6031279
32	0xbf26e95f	-0.65199846
33	0xbeabfac2	-0.3358975
34	0xbeaa3856	-0.33246106
35	0xbeba8768	-0.36431432
36	0xbeb573ec	-0.35440004
37	0xbec627b7	-0.38702175
38	0xbf2ea556	-0.6822103
39	0xbebcc623	-0.36869916
40	0xbebd84ad	-0.37015286
41	0xbf36f338	-0.7146487
42	0xbea8c863	-0.32965383
43	0xbf2ef4a6	-0.68342054
44	0xbeb6470f	-0.35601088
45	0xbec659d4	-0.38740408
46	0xbeba6e56	-0.36412305
47	0xbf23ab90	-0.6393366
48	0xbea957f2	-0.3307491
49	0xbf27f1ea	-0.65603507
50	0xbeac8b3e	-0.33699983
51	0xbf095678	-0.53647566
52	0xbeb28383	-0.3486596
53	0xbec04104	-0.37549603
54	0xbf268762	-0.6505033
55	0xbf08ab0e	-0.5338601
56	0xbeb1d9ef	-0.34736583
57	0xbeafd4ca	-0.34342033
58	0xbf0ebd10	-0.55757236
59	0xbf0f6c4c	-0.5602462
60	0xbec8eb60	-0.39242077
61	0xbf1785c4	-0.59188485
62	0xbeb39ec7	-0.35082075
63	0xbeb43859	-0.3519924
64	0xbf1caf2b	-0.61204785
65	0xbf16b59e	-0.58870876
66	0xbead5f1a	-0.3386162
67	0xbf3654b3	-0.7122299
68	0xbeb0fbc3	-0.3456708
69	0xbee0ed24	-0.43930924
70	0xbefca77b	-0.49346527
71	0xbe9c1c3b	-0.30490288
72	0xbf226e71	-0.6344977
73	0xbee14b0f	-0.44002578
74	0xbeae3429	-0.3402417
75	0xbf08edaf	-0.53487676
76	0xbeae18d7	-0.34003326
77	0xbeb7da7d	-0.3590888
78	0xbeb5b675	-0.35490766
79	0xbea69d74	-0.32542002
80	0xbecc9f84	-0.3996545
81	0xbeb63104	-0.3558427
82	0xbee49feb	-0.44653258
83	0xbf06e703	-0.52696246
84	0xbeae53ae	-0.34048218
85	0xbeb1ab43	-0.34700975
86	0xbeb974b7	-0.3622186
87	0xbee4d174	-0.4469105
88	0xbeb0dd51	-0.3454385
89	0xbeba1306	-0.3634264
90	0xbeb9608d	-0.36206475
91	0xbeae0ac6	-0.33992594
92	0xbebc117a	-0.36732084
93	0xbebbc81a	-0.36676103
94	0xbf45a8c8	-0.77210665
95	0xbee80e4f	-0.45323417
96	0xbf2710e1	-0.6526013
97	0xbea00c73	-0.31259498
98	0xbea49fb3	-0.3215309
99	0xbeb2fc7c	-0.34958255
100	0xbedb1de2	-0.42796236
101	0xbeae03f3	-0.33987388
102	0xbeaed0e7	-0.34143755
103	0xbebc8099	-0.36816862
104	0xbeadeb75	-0.33968702
105	0xbeacc35e	-0.33742803
106	0xbeab5529	-0.3346341
107	0xbeb55b36	-0.3542115
108	0xbeb2024e	-0.34767383
109	0xbead1d3c	-0.33811367
110	0xbf0e1b7b	-0.5551068
111	0xbf082d1a	-0.5319382
112	0xbeb4746e	-0.3524508
113	0xbeee62d1	-0.46559766
114	0xbeb9911c	-0.36243522
115	0xbeb75c66	-0.35812682
116	0xbee1f232	-0.44130093
117	0xbec81b77	-0.39083454
118	0xbeb03d50	-0.34421778
119	0xbf065764	-0.524771
120	0xbf26d90d	-0.65174943
121	0xbeac8626	-0.33696097
122	0xbebdc684	-0.37065518
123	0xbf1d96ff	-0.61558527
124	0xbf3a70d0	-0.7282839
125	0xbf0c6408	-0.54840136
126	0xbead09c6	-0.3379652
127	0xbec12047	-0.37719938

batch_normalization_v1_2/batchnorm/mul f4 [64]
0	0x3ec0fc34	0.37692416
1	0x3f2408fc	0.6407621
2	0x3f303886	0.6883625
3	0x3ef8061c	0.4844216
4	0x3ed2576c	0.41082323
5	0x3ee2635a	0.44216424
6	0x3ee5742e	0.448152
7	0x3f21b3a8	0.6316476
8	0x3f15c8db	0.58509606
9	0x3f11a089	0.5688558
10	0x3ee8ef4c	0.4549507
11	0x3ec094d8	0.3761356
12	0x3ef2270d	0.47295418
13	0x3f211495	0.6292203
14	0x3ec63683	0.38713464
15	0x3ec975d9	0.39347723
16	0x3ef101e6	0.4707176
17	0x3f160250	0.5859728
18	0x3f07ec9f	0.5309543
19	0x3efb958e	0.4913754
20	0x3edae757	0.42754623
21	0x3f10abab	0.56511945
22	0x3eb99d02	0.362526
23	0x3f209137	0.6272158
24	0x3ef67be0	0.48141384
25	0x3f0dd349	0.5540052
26	0x3ec25305	0.37953964
27	0x3f29c5e5	0.6631759
28	0x3eec4b69	0.46151283
29	0x3f0f276f	0.55919546
30	0x3ee56e87	0.44810888
31	0x3eeda50b	0.4641498
32	0x3f29fa91	0.6639796
33	0x3ecac1ed	0.3960108
34	0x3f0a078e	0.5391778
35	0x3ec0336e	0.37539238
36	0x3ed01eb9	0.4064844
37	0x3f0fefc7	0.56225246
38	0x3ee4b2c4	0.44667637
39	0x3eeae08a	0.45874435
40	0x3ec74b91	0.3892484
41	0x3f2b81ab	0.6699473
42	0x3f2b7a1f	0.66983217
43	0x3f0d06a0	0.55088234
44	0x3f1f7a84	0.6229632
45	0x3ee8cf76	0.4547078
46	0x3f09e089	0.5385824
47	0x3f0a9f96	0.5414976
48	0x3ec3f253	0.38270816
49	0x3f05ac79	0.522163
50	0x3ed4471c	0.41460502
51	0x3ebc1514	0.3673483
52	0x3f0740e9	0.5283342
53	0x3f114cf0	0.5675802
54	0x3f342902	0.7037507
55	0x3ecf2237	0.4045579
56	0x3eb79892	0.3585859
57	0x3f279ee1	0.65476805
58	0x3f0870a5	0.5329688
59	0x3f0de090	0.5542078
60	0x3ef15a6a	0.47139293
61	0x3efd302e	0.4945082
62	0x3efc8fad	0.49328366
63	0x3f0f1e62	0.55905735

batch_normalization_v1_2/batchnorm/sub f4 [64]
0	0xbebdeab1	-0.37093118
1	0xbeb29024	-0.34875596
2	0xbee51958	-0.44745898
3	0xbead3d57	-0.3383586
4	0xbece75b7	-0.40324184
5	0xbeabfe99	-0.3359268
6	0xbecc507d	-0.39905158
7	0xbecb64ef	-0.39725444
8	0xbeaf0f65	-0.34191433
9	0xbebc8faa	-0.36828357
10	0xbf254666	-0.64560544
11	0xbec9bc58	-0.39401507
12	0xbeb8cbe0	-0.36093044
13	0xbf089c15	-0.5336316
14	0xbea9a81e	-0.33136076
15	0xbed0e3ea	-0.40798885
16	0xbeb3fb00	-0.35152435
17	0xbefc0dff	-0.49229428
18	0xbeb25616	-0.34831303
19	0xbeafcf6f	-0.34337947
20	0xbec24db0	-0.37949896
21	0xbf003b49	-0.5009046
22	0xbecdec05	-0.4021913
23	0xbec241ea	-0.37940913
24	0xbf30e95c	-0.6910608
25	0xbea156c1	-0.315115
26	0xbecb811c	-0.3974694
27	0xbebce282	-0.36891562
28	0xbebc7d50	-0.36814356
29	0xbf1549c8	-0.58315706
30	0xbeb3fda6	-0.35154456
31	0xbec5895a	-0.38581353
32	0xbecfe405	-0.40603653
33	0xbec857da	-0.39129525
34	0xbf2172c0	-0.6306572
35	0xbeba3f1d	-0.36376277
36	0xbecdb6f2	-0.4017864
37	0xbec89e86	-0.39183444
38	0xbea1daee	-0.31612343
39	0xbeb51440	-0.35367012
40	0xbebb3eb7	-0.36571285
41	0xbef05286	-0.4693796
42	0xbead6927	-0.33869287
43	0xbec5e0be	-0.38648027
44	0xbefc6f18	-0.49303508
45	0xbeb4bb37	-0.35299084
46	0xbe9edf8e	-0.31029934
47	0xbf14ae43	-0.580784
48	0xbecb6193	-0.3972288
49	0xbf13731a	-0.57597506
50	0xbecbad23	-0.3978053
51	0xbedba4d2	-0.42899185
52	0xbf18130b	-0.5940406
53	0xbf1cd289	-0.6125875
54	0xbedbb8db	-0.4291447
55	0xbebf0d4e	-0.37314838
56	0xbedc80ef	-0.4306712
57	0xbebbd9b2	-0.36689526
58	0xbeae8305	-0.34084335
59	0xbeb6ceba	-0.35704595
60	0xbea1ae2c	-0.31578195
61	0xbf211715	-0.62925845
62	0xbeb89f73	-0.3605915
63	0xbea7b3a7	-0.3275425

batch_normalization_v1_3/batchnorm/mul f4 [32]
0	0x3ef1582a	0.47137576
1	0x3f1b785d	0.60730535
2	0x3f2178b9	0.63074833
3	0x3f1f8c07	0.6232304
4	0x3f0a7003	0.54077166
5	0x3ef4c2f1	0.47804978
6	0x3f32b911	0.6981364
7	0x3f05ea28	0.5231042
8	0x3eeb940a	0.46011382
9	0x3f01c59c	0.5069215
10	0x3f1de838	0.6168246
11	0x3f115477	0.5676951
12	0x3f0e9459	0.5569511
13	0x3ec14039	0.3774431
14	0x3f238513	0.6387493
15	0x3eb13350	0.3460946
16	0x3ed14209	0.40870693
17	0x3ebd0300	0.3691635
18	0x3eeff35b	0.46865353
19	0x3f1f390a	0.6219641
20	0x3ed70c55	0.42001596
21	0x3eb126a2	0.34599787
22	0x3edc318a	0.43006545
23	0x3ec33e6d	0.38133565
24	0x3ec0817d	0.37598792
25	0x3f08c95f	0.5343227
26	0x3ee7e142	0.45289046
27	0x3f18b1e4	0.5964644
28	0x3ecfd071	0.40588716
29	0x3eb2cc3a	0.34921438
30	0x3f048880	0.5177078
31	0x3ed90870	0.4238925

batch_normalization_v1_3/batchnorm/sub f4 [32]
0	0xbf0412cd	-0.5159119
1	0xbf0aa85d	-0.5416315
2	0xbed3ec16	-0.41391057
3	0xbe8337b6	-0.25628442
4	0xbe9f3274	-0.3109318
5	0xbf28f630	-0.6600065
6	0xbec3310c	-0.38123357
7	0xbea25cd7	-0.31711456
8	0xbeec1d8c	-0.46116292
9	0xbec4177b	-0.38299164
10	0xbec2a6a5	-0.38017765
11	0xbf1e6382	-0.61870587
12	0xbec604c8	-0.38675523
13	0xbecf92ce	-0.4054169
14	0xbe91448a	-0.28372604
15	0xbecdf2a5	-0.40224186
16	0xbed6ef18	-0.4197929
17	0xbed44329	-0.4145749
18	0xbe936e33	-0.28795013
19	0xbeb7e88c	-0.35919607
20	0xbed29bdc	-0.41134536
21	0xbee57fbe	-0.44824022
22	0xbea7066b	-0.32622084
23	0xbee5f532	-0.44913632
24	0xbe99d57c	-0.30045688
25	0xbef9c760	-0.48784924
26	0xbeab280d	-0.33428994
27	0xbec6bc8a	-0.3881572
28	0xbeafa7ce	-0.34307712
29	0xbecd0557	-0.40043136
30	0xbf1d87b5	-0.615352
31	0xbeb8d09a	-0.3609665

batch_normalization_v1_4/batchnorm/mul f4 [16]
0	0x3ebdc468	0.3706391
1	0x3ef46663	0.47734365
2	0x3eda1bcd	0.42599335
3	0x3eb3e355	0.35134378
4	0x3ecd7687	0.40129492
5	0x3ee870be	0.45398515
6	0x3ec3bfab	0.3823217
7	0x3e884f74	0.26623118
8	0x3ef7ee79	0.48424128
9	0x3f0a95a5	0.5413459
10	0x3ecdaa67	0.4016907
11	0x3ee1684b	0.44024882
12	0x3eaa4e1b	0.33262715
13	0x3eae372c	0.34026468
14	0x3e8cc780	0.27495956
15	0x3ee14c64	0.44003594

batch_normalization_v1_4/batchnorm/sub f4 [16]
0	0xbddf5490	-0.10904801
1	0x3d49a038	0.049225062
2	0xbc039140	-0.008030236
3	0xbf13a91b	-0.5767991
4	0xbc91ef70	-0.017814368
5	0xbf239dc4	-0.63912606
6	0xbf3b743c	-0.73224235
7	0x3d7bdbf8	0.061489075
8	0xbdd0e038	-0.10199016
9	0xbf4bbc6b	-0.7958438
10	0xbf3bc780	-0.7335129
11	0xbcd7bba0	-0.026334584
12	0xbf4a9ba7	-0.79143757
13	0xbda4c8b4	-0.080460936
14	0xbf2ab166	-0.6667694
15	0xbf29306b	-0.66089505

dense/MatMul_bias f4 [256]
0	0xbc45f0d4	-0.012081344
1	0x3c039dbf	0.008033215
2	0x3d7d3792	0.061820574
3	0xbc6879be	-0.014189182
4	0x3d1acfbe	0.037795775
5	0xbc9a8e27	-0.018866612
6	0x3cc24212	0.023713145
7	0x3cd29ee1	0.025710525
8	0xbb2679db	-0.0025402221
9	0xbb424996	-0.0029645911
10	0x3ba98f00	0.0051745176
11	0x3ac84ba7	0.0015281335
12	0x3be3671d	0.0069397823
13	0xbd130208	-0.03589061
14	0xbcfe6025	-0.031051705
15	0xbc84618d	-0.016159797
16	0xbcd7173d	-0.026256198
17	0xb97f7787	-0.00024363222
18	0x3d00eeff	0.031477924
19	0x3c39ebec	0.011347752
20	0x3c89db28	0.016828135
21	0x3ce0331b	0.027368119
22	0x3caa9b46	0.020825993
23	0x3d1889ca	0.03724078
24	0xbc5263bd	-0.012841162
25	0xbd0d4f74	-0.0344996
26	0xbc5538ee	-0.013014061
27	0x3cc316bb	0.02381455
28	0xbc1de6f0	-0.009637579
29	0xbc266936	-0.01015692
30	0xbc8343c4	-0.016023524
31	0xbc05e42d	-0.008172077
32	0xbb29cf28	-0.0025910828
33	0xbbff5a73	-0.007792765
34	0xbc5c426f	-0.013443573
35	0x3bc17fea	0.005905141
36	0x3bb6872b	0.0055703125
37	0x3ce4f5d4	0.027949251
38	0xba13e5b1	-0.00056418317
39	0xbc36a3bd	-0.011147437
40	0x3c6d9dba	0.014502937
41	0xbc768b1d	-0.015047816
42	0x3c61e324	0.013787065
43	0xbc35755d	-0.011075345
44	0xbb800436	-0.003906752
45	0x39019750	0.00012358767
46	0x3cb13b34	0.021634676
47	0x3c52d6c3	0.012868586
48	0x3b494268	0.0030709747
49	0xbc9bd9e6	-0.0190248
50	0x3c99a376	0.018754702
51	0xb9dd4d9c	-0.00042210228
52	0xbc7c82d4	-0.015412051
53	0xbba3086a	-0.0049753683
54	0x3b23e630	0.0025009029
55	0x3c81f390	0.01586321
56	0xbbdee0aa	-0.0068016844
57	0x3cc61b37	0.024182899
58	0xbad2346c	-0.0016037351
59	0x3c6f8c2b	0.014620821
60	0xbb17fa91	-0.002319012
61	0xbc7f4c48	-0.015582152
62	0xbb882ed0	-0.004155971
63	0x3bf38c8b	0.0074325255
64	0x3c0ee3b9	0.0087212855
65	0xbc01367d	-0.007886526
66	0x3d420c84	0.047375217
67	0x3b9636d7	0.004584174
68	0x3bb07408	0.0053849258
69	0x3c626908	0.013818987
70	0xbb15bc3b	-0.002284779
71	0x3bcb20d4	0.006198982
72	0xbc513af2	-0.012770401
73	0xbbcc0e94	-0.006227324
74	0x3baa1c61	0.0051913713
75	0xbc691983	-0.014227274
76	0x3b9481d7	0.0045320797
77	0x3ba31aa8	0.004977543
78	0x3cfa1937	0.030529601
79	0x3d06e562	0.0329336
80	0x3c7c2570	0.015389785
81	0x3c80d359	0.015725778
82	0x3ac72d4c	0.0015195995
83	0xbb877004	-0.0041332263
84	0x3b943df1	0.0045239856
85	0xbc295390	-0.010334864
86	0x3c6963a4	0.014244948
87	0x3c9af728	0.018916681
88	0x3bf95eba	0.0076101692
89	0xba0b6d77	-0.0005318741
90	0x3ce2fa91	0.02770737
91	0x3b6c7f80	0.0036086738
92	0x3bcfb13a	0.0063382657
93	0x3c6b1234	0.014347602
94	0xbb0ab5b8	-0.0021165442
95	0x3c44e8d5	0.012018402
96	0x3d1d817c	0.038453564
97	0xbbf9da2a	-0.007624884
98	0x3c20802f	0.009796186
99	0xb8c2f96c	-9.297099e-05
100	0x3adc7b61	0.0016821438
101	0xbb3a18e4	-0.0028396184
102	0x3d3e3c79	0.04644439
103	0xbc22877a	-0.009919995
104	0xbbdee15c	-0.0068017673
105	0xbc19f04a	-0.009395668
106	0x3ca4bc4b	0.020109316
107	0xbc016ec3	-0.007899943
108	0xbbb86dc3	-0.005628319
109	0x3b8440c9	0.0040360433
110	0x3d2b8534	0.04187508
111	0xbaea5840	-0.0017879084
112	0xbc0f8176	-0.008758893
113	0x3b0369f7	0.0020052174
114	0xbc0593d6	-0.008152923
115	0xbc2e8a74	-0.010653127
116	0xbc80dcf1	-0.015730353
117	0x3c878f4b	0.01654782
118	0x3c029ef5	0.007972469
119	0xbc3d4573	-0.0115522025
120	0xbca4b9cf	-0.020108132
121	0x3c83bcd5	0.016081253
122	0xbc535ca9	-0.01290051
123	0xbae42ba2	-0.0017408023
124	0x3b995b22	0.0046800533
125	0x3c4fa473	0.012673485
126	0x3bcbc5bd	0.0062186406
127	0x3deba846	0.11506705
128	0x3bf85b7c	0.007579265
129	0x3d080b65	0.03321399
130	0x3c1314d4	0.008977134
131	0x3cff1333	0.031137085
132	0x3ad21983	0.0016029332
133	0xbbd74ceb	-0.0065704486
134	0xbc6e7afa	-0.014555687
135	0x3cb4a327	0.022050453
136	0x3c317af3	0.010832536
137	0x3c3a04fb	0.0113537265
138	0xbd2b73ac	-0.04185836
139	0x3c00f5ba	0.007871086
140	0xbc8d1ada	-0.017224718
141	0xbc727d7d	-0.014800427
142	0x3a8c35dc	0.0010697204
143	0x3b3ae945	0.0028520387
144	0x3cc38c81	0.023870708
145	0xbb4d9e22	-0.0031374772
146	0x3c0c5798	0.008565806
147	0xbc90f6cc	-0.017695807
148	0x3ca281f7	0.019837363
149	0x3881e97e	6.194691e-05
150	0x3b5b746e	0.0033486146
151	0x3c2be212	0.010490911
152	0xbc9e7e9f	-0.019347487
153	0x3d1daba6	0.038493775
154	0xbc96196c	-0.018322669
155	0x3c34763c	0.011014517
156	0xbca88620	-0.020571768
157	0x3d23b531	0.03996772
158	0x3c88c733	0.016696548
159	0xbb062170	-0.0020466708
160	0xbace805d	-0.0015754808
161	0x3b3b9305	0.0028621566
162	0xbb4a5278	-0.003087191
163	0xb9e58276	-0.00043775485
164	0xbbad6f3d	-0.0052928017
165	0x3cd7c143	0.026337272
166	0x38b7afcf	8.758867e-05
167	0x3c910d2f	0.017706482
168	0x3c84a6e5	0.016192863
169	0x3cefd4fe	0.029276367
170	0xbc0c674c	-0.00856955
171	0xbbe7646a	-0.007061531
172	0xbc4c91fa	-0.012485975
173	0xbc596e18	-0.013270877
174	0x3b054411	0.002033476
175	0x3cfed1c4	0.031105883
176	0x3b8430e7	0.00403415
177	0xbc1f2a6e	-0.009714706
178	0x3beaea08	0.007169012
179	0xbc38da41	-0.011282505
180	0xbb39caa1	-0.0028349536
181	0xbbe3de2d	-0.0069539757
182	0x3b63e320	0.0034772828
183	0xbaf3df0b	-0.0018605901
184	0xbbc1b77d	-0.005911766
185	0xbc1b2ab7	-0.009470633
186	0xbc111750	-0.008855656
187	0x3ab5224e	0.0013819428
188	0x3bf9e91b	0.0076266653
189	0x3a6ed371	0.0009110487
190	0x3c22e880	0.009943128
191	0xbc00eaed	-0.007868511
192	0x3cb5b1f9	0.02217959
193	0x3b99148f	0.00467164
194	0xbb1a8e1b	-0.0023583237
195	0x3c335c0d	0.01094724
196	0xbcd89c9d	-0.026441867
197	0xbcccca11	-0.024998697
198	0x3b9760e4	0.0046197046
199	0xbc92b2f9	-0.017907606
200	0xbbb69aa6	-0.0055726347
201	0xba64627b	-0.00087121845
202	0x3bd8e372	0.0066189105
203	0x3ccbddd3	0.024886047
204	0xbc2ce8f4	-0.010553587
205	0xbcbb11dd	-0.022835666
206	0xbc64d4e9	-0.013966777
207	0xbad5d2f4	-0.0016313479
208	0xbc3f96db	-0.011693682
209	0x3bc481df	0.005996927
210	0x3ca71213	0.02039436
211	0xbc7ff950	-0.015623406
212	0xbbd0e7eb	-0.006375303
213	0xbbc01dff	-0.005862951
214	0x3d00324a	0.03129796
215	0xba19da08	-0.0005868976
216	0x3c346e2e	0.011012597
217	0xbc17d645	-0.009267394
218	0xbae508b4	-0.0017473907
219	0xbc2affa2	-0.010436924
220	0x3bee2941	0.0072681014
221	0x3d29ac97	0.04142436
222	0x3d258b4a	0.04041604
223	0x3d32b36e	0.04362815
224	0xbb580f51	-0.0032968114
225	0xbbef35ac	-0.0073000994
226	0x3c5087aa	0.012727657
227	0x3be25585	0.0069071674
228	0x3c15ebbe	0.009150444
229	0xbc9c2818	-0.019062087
230	0xbae12d0d	-0.0017179564
231	0x3bbb551b	0.0057169325
232	0xbbbfba69	-0.0058510792
233	0x3c8cff92	0.01721171
234	0xbbe70c0a	-0.0070509957
235	0x3c526ca3	0.012843284
236	0x3c91e722	0.017810408
237	0xbc9ab7db	-0.018886497
238	0x3cec2480	0.028825998
239	0x3c9224b5	0.017839769
240	0x3c59c335	0.01329117
241	0xbbdf25e4	-0.006809937
242	0xbce33fa0	-0.0277403
243	0xbb322bcd	-0.0027186752
244	0xbc40687a	-0.011743659
245	0x3b36ff26	0.0027923076
246	0xbc71657b	-0.0147336675
247	0x3bef46bd	0.007302134
248	0xbba7ec27	-0.005124587
249	0x3ccf45ad	0.025301779
250	0xba14fa4f	-0.0005683051
251	0x3c254411	0.010087029
252	0xbbca0e69	-0.0061662686
253	0x38ed1024	0.00011304047
254	0x3c53cabf	0.012926756
255	0xbc01c8b0	-0.007921383

dense/kernel/transpose u1 [256, 171] scale=0.0014517123 zero_point=0
0	0x3d	0.08855445
1	0x2a	0.06097192
2	0xd0	0.30195618
3	0xf3	0.3527661
4	0x28	0.05806849
5	0x3d	0.08855445
6	0x0f	0.021775685
7	0xad	0.25114623
8	0xba	0.2700185
9	0x34	0.075489044
10	0xba	0.2700185
11	0x3c	0.08710274
12	0x29	0.059520207
13	0xba	0.2700185
14	0xf2	0.3513144
15	0xaa	0.2467911
16	0x04	0.0058068493
17	0xee	0.34550753
18	0x0b	0.015968835
19	0xb3	0.25985652
20	0xe1	0.32663527
21	0xe1	0.32663527
22	0xbb	0.27147022
23	0xdc	0.3193767
24	0x37	0.07984418
25	0x0d	0.018872261
26	0x39	0.0827476
27	0xb8	0.26711506
28	0x44	0.09871644
29	0x0a	0.014517123
30	0xb8	0.26711506
31	0xeb	0.3411524
32	0x3a	0.08419932
33	0x0a	0.014517123
34	0x40	0.09290959
35	0xea	0.3397007
36	0xab	0.24824281
37	0x16	0.03193767
38	0xcd	0.297601
39	0x08	0.011613699
40	0x18	0.034841098
41	0x03	0.0043551372
42	0xb9	0.2685668
43	0xf2	0.3513144
44	0x0c	0.017420549
45	0x0a	0.014517123
46	0x13	0.027582534
47	0xda	0.31647328
48	0x37	0.07984418
49	0x1d	0.04209966
50	0xf5	0.35566953
51	0x3f	0.09145787
52	0xe3	0.3295387
53	0xae	0.25259796
54	0xac	0.24969453
55	0x28	0.05806849
56	0x3b	0.085651025
57	0x22	0.04935822
58	0x34	0.075489044
59	0xc8	0.29034248
60	0x2a	0.06097192
61	0xb2	0.2584048
62	0xe6	0.33389384
63	0xf6	0.35712123
64	0xce	0.29905275
65	0x0b	0.015968835
66	0x05	0.0072585614
67	0x1a	0.037744522
68	0xeb	0.3411524
69	0x44	0.09871644
70	0xdb	0.317925
71	0xea	0.3397007
72	0x1b	0.039196234
73	0xb0	0.25550136
74	0x00	0.0
75	0xdf	0.32373184
76	0x28	0.05806849
77	0x43	0.09726473
78	0x08	0.011613699
79	0x30	0.069682196
80	0x3e	0.090006165
81	0x16	0.03193767
82	0xce	0.29905275
83	0xb1	0.2569531
84	0xb2	0.2584048
85	0xdb	0.317925
86	0xbf	0.27727705
87	0x1b	0.039196234
88	0x25	0.053713355
89	0xf1	0.34986266
90	0xa9	0.24533938
91	0x42	0.09581301
92	0x4a	0.10742671
93	0xb5	0.26275992
94	0xbb	0.27147022
95	0x42	0.09581301
96	0xba	0.2700185
97	0x20	0.046454795
98	0x41	0.094361305
99	0xe4	0.3309904
100	0x1c	0.040647946
101	0x15	0.03048596
102	0x3f	0.09145787
103	0x0b	0.015968835
104	0xc8	0.29034248
105	0xcc	0.2961493
106	0xbf	0.27727705
107	0x12	0.026130822
108	0xb9	0.2685668
109	0xe4	0.3309904
110	0x2f	0.06823048
111	0xce	0.29905275
112	0xdb	0.317925
113	0xdd	0.32082844
114	0xf8	0.36002466
115	0x1c	0.040647946
116	0x39	0.0827476
117	0x25	0.053713355
118	0xd3	0.3063113
119	0xbd	0.27437362
120	0x36	0.07839247
121	0xf0	0.34841096
122	0x0a	0.014517123
123	0x55	0.12339555
124	0x10	0.023227397
125	0x29	0.059520207
126	0x00	0.0
127	0xef	0.34695923
128	0x26	0.055165067
129	0xd3	0.3063113
130	0xd1	0.30340788
131	0xff	0.37018666
132	0x14	0.029034246
133	0xfc	0.3658315
134	0x3d	0.08855445
135	0xd7	0.31211814
136	0xbb	0.27147022
137	0xc9	0.29179418
138	0x10	0.023227397
139	0x3f	0.09145787
140	0x00	0.0
141	0xba	0.2700185
142	0xcc	0.2961493
143	0xb3	0.25985652
144	0x98	0.22066027
145	0xb1	0.2569531
146	0xae	0.25259796
147	0x2a	0.06097192
148	0xb0	0.25550136
149	0xe0	0.32518357
150	0x07	0.010161987
151	0x38	0.08129589
152	0xee	0.34550753
153	0x25	0.053713355
154	0x0d	0.018872261
155	0xc0	0.27872878
156	0xf2	0.3513144
157	0xc8	0.29034248
158	0xfe	0.36873493
159	0x44	0.09871644
160	0x04	0.0058068493
161	0xb1	0.2569531
162	0xf3	0.3527661
163	0xc3	0.28308392
164	0xfa	0.3629281
165	0x15	0.03048596
166	0x40	0.09290959
167	0xed	0.34405583
168	0x2d	0.065327056
169	0x48	0.104523286
170	0xcb	0.2946976
171	0x23	0.05080993
172	0xbf	0.27727705
173	0x08	0.011613699
174	0xfc	0.3658315
175	0xb0	0.25550136
176	0xd9	0.31502157
177	0x02	0.0029034247
178	0xdf	0.32373184
179	0x39	0.0827476
180	0x0f	0.021775685
181	0x04	0.0058068493
182	0x41	0.094361305
183	0xea	0.3397007
184	0x1e	0.04355137
185	0xd2	0.30485958
186	0x18	0.034841098
187	0x4f	0.114685275
188	0xd1	0.30340788
189	0xc1	0.28018048
190	0xc8	0.29034248
191	0x49	0.105975
192	0xf2	0.3513144
193	0x40	0.09290959
194	0xca	0.29324588
195	0xf5	0.35566953
196	0xd7	0.31211814
197	0x2a	0.06097192
198	0x2a	0.06097192
199	0xe8	0.33679727
200	0x1e	0.04355137
201	0x10	0.023227397
202	0xb9	0.2685668
203	0xe5	0.33244213
204	0x11	0.02467911
205	0xe7	0.33534554
206	0xc5	0.28598732
207	0x29	0.059520207
208	0xae	0.25259796
209	0xf2	0.3513144
210	0x36	0.07839247
211	0xdd	0.32082844
212	0xe8	0.33679727
213	0x46	0.10161986
214	0x3b	0.085651025
215	0x01	0.0014517123
216	0x0e	0.020323973
217	0x13	0.027582534
218	0xcd	0.297601
219	0x04	0.0058068493
220	0xcd	0.297601
221	0xec	0.3426041
222	0xde	0.32228014
223	0x0a	0.014517123
224	0xf7	0.35857296
225	0xda	0.31647328
226	0x23	0.05080993
227	0xaa	0.2467911
228	0x2a	0.06097192
229	0x22	0.04935822
230	0x0f	0.021775685
231	0xec	0.3426041
232	0xbb	0.27147022
233	0x2a	0.06097192
234	0x0a	0.014517123
235	0x42	0.09581301
236	0x2c	0.06387534
237	0xe6	0.33389384
238	0x16	0.03193767
239	0xd4	0.307763
240	0xc9	0.29179418
241	0xc3	0.28308392
242	0x32	0.07258562
243	0x43	0.09726473
244	0x03	0.0043551372
245	0x45	0.10016815
246	0x2c	0.06387534
247	0x0e	0.020323973
248	0x02	0.0029034247
249	0x12	0.026130822
250	0xdc	0.3193767
251	0x3d	0.08855445
252	0x42	0.09581301
253	0xe7	0.33534554
254	0xd1	0.30340788
255	0x2b	0.06242363

dense_1/MatMul_bias f4 [128]
0	0x3c6ce9f0	0.014460072
1	0xbbcf3d42	-0.006324441
2	0x3d2a5106	0.041581176
3	0x3c110685	0.008851652
4	0x3ce16e95	0.02751855
5	0x3c9adf84	0.018905409
6	0x3d48cb56	0.04902204
7	0x3cf76be4	0.030202813
8	0xbc9d7931	-0.019222828
9	0xbcb9244d	-0.022600317
10	0x3ccfdf70	0.025375098
11	0xbd1f03e4	-0.03882207
12	0x3a223537	0.0006187739
13	0x3cd1cbf4	0.025609948
14	0x3d372edb	0.04472242
15	0xbc611012	-0.013736742
16	0xbc1d8e62	-0.009616466
17	0x3bc04cdd	0.005868538
18	0x3dd9e8a7	0.10640078
19	0x3d570028	0.052490383
20	0x3d0361ec	0.032075807
21	0x3c3161f3	0.010826576
22	0x3d9d194a	0.07670839
23	0x3d5cca50	0.053903878
24	0x3d5550e4	0.052079096
25	0xbae458b2	-0.0017421453
26	0x3c128916	0.008943817
27	0x3c057ee6	0.008147931
28	0x3c3250e3	0.010883543
29	0x3cdb6201	0.02678013
30	0x3d42afe2	0.047531016
31	0x3d0b07c7	0.033942964
32	0x3d8357d5	0.06413237
33	0x3c28c1a6	0.010300076
34	0xbc062c55	-0.0081892805
35	0xbb99a7b8	-0.004689183
36	0x3c2ee6a2	0.010675104
37	0x3bedc028	0.007255573
38	0x3d839884	0.064255744
39	0x3d294885	0.041328926
40	0x3c043532	0.008069323
41	0x3dd97bd4	0.106193215
42	0x3bcdbfe4	0.0062789787
43	0x3d9e4740	0.077284336
44	0xbc00c8d9	-0.007860386
45	0x3b8152a6	0.00394662
46	0xbc795d91	-0.015220062
47	0x3d589ca3	0.052883755
48	0x3d806016	0.06268327
49	0x3db8864d	0.09009991
50	0x3ba47389	0.0050186557
51	0x3cddc6ce	0.027072337
52	0x3d19c0f5	0.037537534
53	0xba28fbd6	-0.0006446218
54	0x3d792ce3	0.060833823
55	0x3d11dedd	0.03561293
56	0x3d7b79ba	0.061395384
57	0xbbfef79a	-0.0077809813
58	0x3cdc3cd8	0.026884481
59	0x3d06e3a7	0.03293195
60	0x3d9e4f47	0.07729965
61	0x3d166634	0.036718562
62	0x3d7aea1d	0.061258424
63	0xbcc98095	-0.024597446
64	0x3d8a0cc9	0.0674072
65	0x3cc3c421	0.023897232
66	0x3d86ee28	0.065883934
67	0x3db9e1fc	0.09076306
68	0xbbd508e0	-0.006501302
69	0xbc6a8980	-0.014315009
70	0x3c256e12	0.010097044
71	0x3b2a141b	0.0025951925
72	0x3d2aace9	0.041668806
73	0xba6e8e46	-0.000910018
74	0x3cb1da7a	0.021710623
75	0xbbe4b260	-0.006979272
76	0xbbd92b9d	-0.0066275136
77	0x3cc1b122	0.023644034
78	0x3d31ea3e	0.04343628
79	0xbc1b69c6	-0.009485668
80	0xbc917910	-0.017757922
81	0x3d3c4a8a	0.045969523
82	0x3a150c35	0.0005685718
83	0x3c93b386	0.01802994
84	0x3d7304fc	0.059330925
85	0xbc63d36d	-0.013905388
86	0x3c258175	0.010101666
87	0xbccd0835	-0.025028327
88	0xbc54e28a	-0.012993464
89	0xbc407639	-0.0117469365
90	0x3c4e842a	0.012604753
91	0x3ae4a7f3	0.0017445072
92	0xbc76783b	-0.015043314
93	0x3c6c2204	0.014412407
94	0x3e14ad72	0.14519289
95	0xbb654146	-0.0034981533
96	0x3d62d34c	0.05537729
97	0x3c69288a	0.014230857
98	0x387cc7bf	6.026751e-05
99	0xbc95cd27	-0.0182863
100	0xbc3145cc	-0.0108198635
101	0xbc6393e7	-0.013890243
102	0x39f56df5	0.00046811966
103	0xbc7216e8	-0.014775969
104	0x3c31231a	0.0108115915
105	0xbc84c8f2	-0.0162091
106	0xbb734ebc	-0.0037125787
107	0x3da9b002	0.08285524
108	0x3c04cfa2	0.008106144
109	0xbba54202	-0.005043269
110	0x3d1bdcce	0.038052373
111	0x3c53dcaf	0.012931033
112	0x3d47e791	0.048804823
113	0x3b5cc1db	0.0033684883
114	0x3ba28643	0.004959853
115	0x3dac23c7	0.084052615
116	0x3c864ff9	0.016395556
117	0xbbc026c1	-0.005863995
118	0x3c95e453	0.01829735
119	0x3cdb820e	0.026795413
120	0x3d837e9e	0.06420635
121	0x3c265379	0.010151737
122	0x3dc07e6b	0.09399112
123	0x3d897105	0.0671101
124	0x3dc31750	0.09525931
125	0x3c543823	0.012952837
126	0x3c6465f5	0.013940324
127	0x3ccef591	0.02526358

dense_1/kernel/transpose u1 [128, 256] scale=0.0013860901 zero_point=0
0	0x34	0.072076686
1	0x08	0.0110887205
2	0xa0	0.22177441
3	0x4c	0.10534284
4	0x10	0.022177441
5	0xf2	0.33543378
6	0xce	0.28553456
7	0x32	0.0693045
8	0xb6	0.2522684
9	0x0f	0.020791352
10	0x2d	0.06237405
11	0xba	0.25781274
12	0xc9	0.2786041
13	0x0e	0.01940526
14	0x07	0.00970263
15	0x2c	0.060987964
16	0x00	0.0
17	0xa9	0.23424922
18	0xa6	0.23009095
19	0xf2	0.33543378
20	0xdb	0.30355373
21	0x22	0.04712706
22	0x03	0.00415827
23	0x05	0.0069304504
24	0xe5	0.3174146
25	0x4d	0.106728934
26	0x30	0.06653232
27	0x4f	0.109501116
28	0x49	0.10118458
29	0xfa	0.3465225
30	0x06	0.00831654
31	0x0c	0.01663308
32	0x1b	0.03742443
33	0x58	0.12197593
34	0xcf	0.28692064
35	0x35	0.07346278
36	0x24	0.049899243
37	0xf2	0.33543378
38	0xa9	0.23424922
39	0xd8	0.29939544
40	0x40	0.088709764
41	0x22	0.04712706
42	0x5f	0.13167855
43	0x4b	0.10395675
44	0x06	0.00831654
45	0x14	0.027721802
46	0x2b	0.059601873
47	0xe2	0.31325635
48	0xe7	0.3201868
49	0x23	0.04851315
50	0xbf	0.2647432
51	0xb3	0.24811012
52	0x30	0.06653232
53	0x20	0.044354882
54	0x54	0.116431564
55	0xb7	0.25365448
56	0x32	0.0693045
57	0xcd	0.28414845
58	0x47	0.098412395
59	0xb7	0.25365448
60	0xf4	0.33820596
61	0x2b	0.059601873
62	0xfa	0.3465225
63	0xf1	0.3340477
64	0x28	0.055443604
65	0xc8	0.277218
66	0x16	0.030493982
67	0xda	0.30216762
68	0x41	0.090095855
69	0x2c	0.060987964
70	0xd7	0.29800937
71	0xdd	0.3063259
72	0xea	0.32434508
73	0x32	0.0693045
74	0xb5	0.2508823
75	0xe9	0.32295898
76	0x0b	0.015246991
77	0x0b	0.015246991
78	0xb4	0.2494962
79	0x1a	0.036038343
80	0x2d	0.06237405
81	0xac	0.2384075
82	0xe0	0.31048417
83	0xf1	0.3340477
84	0xfd	0.3506808
85	0xb3	0.24811012
86	0x55	0.117817655
87	0x0f	0.020791352
88	0xbb	0.25919884
89	0x28	0.055443604
90	0x2d	0.06237405
91	0x1e	0.041582704
92	0x06	0.00831654
93	0x25	0.051285334
94	0x28	0.055443604
95	0x2d	0.06237405
96	0x06	0.00831654
97	0x0b	0.015246991
98	0x5d	0.12890637
99	0x45	0.09564021
100	0x36	0.07484886
101	0x1c	0.03881052
102	0xc2	0.26890147
103	0xf2	0.33543378
104	0xb2	0.24672402
105	0xd8	0.29939544
106	0x14	0.027721802
107	0x27	0.054057512
108	0x07	0.00970263
109	0x04	0.0055443603
110	0x18	0.03326616
111	0xea	0.32434508
112	0x3c	0.08316541
113	0x04	0.0055443603
114	0x45	0.09564021
115	0xf0	0.33266163
116	0xcb	0.28137627
117	0x4f	0.109501116
118	0xc6	0.27444583
119	0xf7	0.34236425
120	0x2c	0.060987964
121	0xe1	0.31187028
122	0x0a	0.013860901
123	0xec	0.32711726
124	0x60	0.13306464
125	0xd5	0.29523718
126	0x46	0.0970263
127	0xf2	0.33543378
128	0xf3	0.3368199
129	0xb4	0.2494962
130	0xd6	0.29662326
131	0xc8	0.277218
132	0xe6	0.31880072
133	0xa9	0.23424922
134	0xfa	0.3465225
135	0xf9	0.34513643
136	0xaf	0.24256577
137	0x17	0.031880073
138	0xe3	0.31464246
139	0xc1	0.2675154
140	0xb7	0.25365448
141	0xce	0.28553456
142	0xc6	0.27444583
143	0x51	0.1122733
144	0xd8	0.29939544
145	0x4f	0.109501116
146	0xcd	0.28414845
147	0xf3	0.3368199
148	0x0a	0.013860901
149	0x4b	0.10395675
150	0x39	0.079007134
151	0x61	0.13445073
152	0x54	0.116431564
153	0x5b	0.1261342
154	0x45	0.09564021
155	0x47	0.098412395
156	0xfe	0.35206687
157	0x0a	0.013860901
158	0x3e	0.08593758
159	0x06	0.00831654
160	0xcf	0.28692064
161	0xce	0.28553456
162	0xe0	0.31048417
163	0xd5	0.29523718
164	0xee	0.32988945
165	0x40	0.088709764
166	0xd8	0.29939544
167	0xdf	0.3090981
168	0xed	0.32850334
169	0xe3	0.31464246
170	0xf4	0.33820596
171	0x44	0.09425412
172	0x58	0.12197593
173	0x20	0.044354882
174	0xd4	0.2938511
175	0xd2	0.29107893
176	0xe5	0.3174146
177	0x46	0.0970263
178	0xf8	0.34375033
179	0xb3	0.24811012
180	0xf1	0.3340477
181	0x4a	0.10257067
182	0x31	0.06791841
183	0xdf	0.3090981
184	0xc4	0.27167365
185	0x47	0.098412395
186	0x1b	0.03742443
187	0xf6	0.34097815
188	0x10	0.022177441
189	0x52	0.11365938
190	0xc9	0.2786041
191	0x38	0.07762104
192	0x11	0.02356353
193	0xf5	0.33959207
194	0xaa	0.23563531
195	0x11	0.02356353
196	0xc4	0.27167365
197	0xa5	0.22870485
198	0xaf	0.24256577
199	0xec	0.32711726
200	0x34	0.072076686
201	0x4b	0.10395675
202	0x0b	0.015246991
203	0xc0	0.26612929
204	0x50	0.11088721
205	0xb2	0.24672402
206	0xb9	0.25642666
207	0xb9	0.25642666
208	0x25	0.051285334
209	0x0b	0.015246991
210	0x45	0.09564021
211	0x01	0.0013860901
212	0x40	0.088709764
213	0xc4	0.27167365
214	0x08	0.0110887205
215	0x3b	0.081779316
216	0xbb	0.25919884
217	0xf3	0.3368199
218	0x22	0.04712706
219	0x1a	0.036038343
220	0xcc	0.28276238
221	0xd8	0.29939544
222	0x24	0.049899243
223	0xea	0.32434508
224	0xba	0.25781274
225	0x4b	0.10395675
226	0x34	0.072076686
227	0x0c	0.01663308
228	0xfd	0.3506808
229	0xd2	0.29107893
230	0xad	0.23979358
231	0xe2	0.31325635
232	0xef	0.33127552
233	0xbf	0.2647432
234	0xf4	0.33820596
235	0xf9	0.34513643
236	0xcf	0.28692064
237	0xa7	0.23147704
238	0xbd	0.26197103
239	0x3d	0.08455149
240	0x12	0.024949621
241	0xae	0.24117967
242	0xdb	0.30355373
243	0x18	0.03326616
244	0xd5	0.29523718
245	0x2f	0.06514623
246	0xff	0.35345298
247	0x0f	0.020791352
248	0xb9	0.25642666
249	0x48	0.099798486
250	0xd4	0.2938511
251	0xcd	0.28414845
252	0x60	0.13306464
253	0xca	0.2799902
254	0x3e	0.08593758
255	0xad	0.23979358

dense_2/MatMul_bias f4 [64]
0	0x3cf17a2f	0.029477207
1	0xbb3239c1	-0.0027195069
2	0x3c669f5a	0.014076078
3	0xbc42e15d	-0.011894551
4	0x3d60ffe6	0.054931544
5	0xbc26e968	-0.010187484
6	0x3d2efc42	0.04272104
7	0xbc077622	-0.008267911
8	0xbb9c0dc0	-0.0047623813
9	0xbc889bb5	-0.01667581
10	0x3e05758e	0.13033125
11	0x3d576fec	0.05259697
12	0x3b871bf9	0.0041232076
13	0x3d3286d3	0.04358561
14	0x3d1e62ab	0.038668316
15	0x3d7caabc	0.061686262
16	0x3c8699ca	0.016430754
17	0x3d08f816	0.03343972
18	0xbc69efe1	-0.014278383
19	0xbc89bf69	-0.016814904
20	0x3caa9227	0.020821644
21	0x3cde279f	0.027118502
22	0x3dce95f6	0.100871965
23	0xbcc35b3e	-0.023847219
24	0x3e320572	0.1738489
25	0xbcd6b2b0	-0.026208252
26	0x3d104778	0.035224408
27	0xbcb7bc9f	-0.022428809
28	0x3b8b1d97	0.0042454707
29	0x3d829367	0.06375771
30	0xbc17d222	-0.009266408
31	0x3c59724c	0.013271879
32	0xbcb2a983	-0.021809345
33	0x3d6b291b	0.057412248
34	0x3dd7c96e	0.105364665
35	0x3d8c18fd	0.06840704
36	0x3d8a3a5a	0.06749411
37	0xbc7537e0	-0.014966935
38	0x3d0a0f21	0.033705834
39	0xbc701c26	-0.014655149
40	0x3d85df24	0.06536701
41	0x3b46efa2	0.0030355235
42	0xbc5e7d76	-0.013579717
43	0xbcd3dc9f	-0.025862036
44	0x3d15bcf8	0.036557168
45	0xbbb73277	-0.0055907327
46	0xbca17e3c	-0.019713514
47	0x3da533cf	0.08066522
48	0x3db67194	0.08908382
49	0x3da4b81b	0.08042928
50	0x3d3f5ca4	0.04671921
51	0x3e1b986f	0.15194868
52	0x3d8af901	0.06785775
53	0x3da0c1bf	0.07849454
54	0xbb55bff9	-0.0032615645
55	0x3d14b2bb	0.036303263
56	0x3e004b19	0.12528647
57	0xbca2c4e2	-0.019869272
58	0xbb67d644	-0.0035375515
59	0x3b806d16	0.003919254
60	0x3cf2bd2f	0.029631225
61	0x3dd872cb	0.1056877
62	0xbb95d0f9	-0.0045720306
63	0xbd1a81e7	-0.03772154
